…
      "cell_type": "code",
      "metadata": {
        "id": "zagJYHmJeFcn",
        "colab_type": "code",
        "colab": {
          "base_uri": "https://localhost:8080/",
          "height": 935
        },
        "outputId": "4b5ccaa2-4eb0-42b0-8491-da4f61d2c17d"
      },
      "source": [
        "model = to_device(ResNet9(3, 10), device)\n",
        "model"
      ],
      "execution_count": 21,
      "outputs": [
        {
          "output_type": "execute_result",
          "data": {
            "text/plain": [
              "ResNet9(\n",
              "  (conv1): Sequential(\n",
              "    (0): Conv2d(3, 64, kernel_size=(3, 3), stride=(1, 1), padding=(1, 1))\n",
              "    (1): BatchNorm2d(64, eps=1e-05, momentum=0.1, affine=True, track_running_stats=True)\n",
              "    (2): ReLU(inplace=True)\n",
              "  )\n",
              "  (conv2): Sequential(\n",
              "    (0): Conv2d(64, 128, kernel_size=(3, 3), stride=(1, 1), padding=(1, 1))\n",
              "    (1): BatchNorm2d(128, eps=1e-05, momentum=0.1, affine=True, track_running_stats=True)\n",
              "    (2): ReLU(inplace=True)\n",
              "    (3): MaxPool2d(kernel_size=2, stride=2, padding=0, dilation=1, ceil_mode=False)\n",
              "  )\n",
              "  (res1): Sequential(\n",
              "    (0): Sequential(\n",
              "      (0): Conv2d(128, 128, kernel_size=(3, 3), stride=(1, 1), padding=(1, 1))\n",
              "      (1): BatchNorm2d(128, eps=1e-05, momentum=0.1, affine=True, track_running_stats=True)\n",
              "      (2): ReLU(inplace=True)\n",
              "    )\n",
              "    (1): Sequential(\n",
              "      (0): Conv2d(128, 128, kernel_size=(3, 3), stride=(1, 1), padding=(1, 1))\n",
              "      (1): BatchNorm2d(128, eps=1e-05, momentum=0.1, affine=True, track_running_stats=True)\n",
              "      (2): ReLU(inplace=True)\n",
              "    )\n",
              "  )\n",
              "  (conv3): Sequential(\n",
              "    (0): Conv2d(128, 256, kernel_size=(3, 3), stride=(1, 1), padding=(1, 1))\n",
              "    (1): BatchNorm2d(256, eps=1e-05, momentum=0.1, affine=True, track_running_stats=True)\n",
              "    (2): ReLU(inplace=True)\n",
              "    (3): MaxPool2d(kernel_size=2, stride=2, padding=0, dilation=1, ceil_mode=False)\n",
              "  )\n",
              "  (conv4): Sequential(\n",
              "    (0): Conv2d(256, 512, kernel_size=(3, 3), stride=(1, 1), padding=(1, 1))\n",
              "    (1): BatchNorm2d(512, eps=1e-05, momentum=0.1, affine=True, track_running_stats=True)\n",
              "    (2): ReLU(inplace=True)\n",
              "    (3): MaxPool2d(kernel_size=2, stride=2, padding=0, dilation=1, ceil_mode=False)\n",
              "  )\n",
              "  (res2): Sequential(\n",
              "    (0): Sequential(\n",
              "      (0): Conv2d(512, 512, kernel_size=(3, 3), stride=(1, 1), padding=(1, 1))\n",
              "      (1): BatchNorm2d(512, eps=1e-05, momentum=0.1, affine=True, track_running_stats=True)\n",
              "      (2): ReLU(inplace=True)\n",
              "    )\n",
              "    (1): Sequential(\n",
              "      (0): Conv2d(512, 512, kernel_size=(3, 3), stride=(1, 1), padding=(1, 1))\n",
              "      (1): BatchNorm2d(512, eps=1e-05, momentum=0.1, affine=True, track_running_stats=True)\n",
              "      (2): ReLU(inplace=True)\n",
              "    )\n",
              "  )\n",
              "  (classifier): Sequential(\n",
              "    (0): MaxPool2d(kernel_size=4, stride=4, padding=0, dilation=1, ceil_mode=False)\n",
              "    (1): Flatten()\n",
              "    (2): Linear(in_features=512, out_features=10, bias=True)\n",
              "  )\n",
              ")"
            ]
          },
          "metadata": {
            "tags": []
          },
          "execution_count": 21
        }
      ]
    },
    {
      "cell_type": "code",
      "metadata": {
        "id": "fbfcBvfTeFWr",
        "colab_type": "code",
        "colab": {}
      },
      "source": [
        "@torch.no_grad()\n",
…
